C:\Users\harid\projects\cavn\VTaC\models\cnn\realtime\train.py
{'framework': 'textcnn', 'differ_loss_weight': 0.1, 'weighted_class': 2.0, 'learning_rate': 0.0001, 'adam_weight_decay': 0.005, 'batch_size': 32, 'max_epoch': 10, 'data_length': 2500}
Training samples: 4060, Validation: 495, Test: 482
Positive samples - Train: 1163.0, Val: 141.0, Test: 137.0
Training samples: 4060, Validation: 495, Test: 482
Positive samples - Train: 1163.0, Val: 141.0, Test: 137.0
CNNClassifier(
  (convs): ModuleList(
    (0): Sequential(
      (0): Dropout(p=0.15, inplace=False)
      (1): Conv1d(4, 64, kernel_size=(25,), stride=(5,), padding=(1,))
      (2): BatchNorm1d(64, eps=1e-05, momentum=0.1, affine=True, track_running_stats=True)
      (3): ReLU()
      (4): Conv1d(64, 64, kernel_size=(25,), stride=(5,), padding=(1,))
      (5): BatchNorm1d(64, eps=1e-05, momentum=0.1, affine=True, track_running_stats=True)
      (6): AdaptiveMaxPool1d(output_size=1)
    )
    (1): Sequential(
      (0): Dropout(p=0.15, inplace=False)
      (1): Conv1d(4, 64, kernel_size=(50,), stride=(5,), padding=(1,))
      (2): BatchNorm1d(64, eps=1e-05, momentum=0.1, affine=True, track_running_stats=True)
      (3): ReLU()
      (4): Conv1d(64, 64, kernel_size=(50,), stride=(5,), padding=(1,))
      (5): BatchNorm1d(64, eps=1e-05, momentum=0.1, affine=True, track_running_stats=True)
      (6): AdaptiveMaxPool1d(output_size=1)
    )
    (2): Sequential(
      (0): Dropout(p=0.15, inplace=False)
      (1): Conv1d(4, 64, kernel_size=(100,), stride=(5,), padding=(1,))
      (2): BatchNorm1d(64, eps=1e-05, momentum=0.1, affine=True, track_running_stats=True)
      (3): ReLU()
      (4): Conv1d(64, 64, kernel_size=(100,), stride=(5,), padding=(1,))
      (5): BatchNorm1d(64, eps=1e-05, momentum=0.1, affine=True, track_running_stats=True)
      (6): AdaptiveMaxPool1d(output_size=1)
    )
    (3): Sequential(
      (0): Dropout(p=0.15, inplace=False)
      (1): Conv1d(4, 64, kernel_size=(150,), stride=(5,), padding=(1,))
      (2): BatchNorm1d(64, eps=1e-05, momentum=0.1, affine=True, track_running_stats=True)
      (3): ReLU()
      (4): Conv1d(64, 64, kernel_size=(150,), stride=(5,), padding=(1,))
      (5): BatchNorm1d(64, eps=1e-05, momentum=0.1, affine=True, track_running_stats=True)
      (6): AdaptiveMaxPool1d(output_size=1)
    )
  )
  (signal_feature): Sequential(
    (0): Linear(in_features=256, out_features=128, bias=True)
    (1): BatchNorm1d(128, eps=1e-05, momentum=0.1, affine=True, track_running_stats=True)
    (2): ReLU()
  )
  (rule_based_label): Sequential(
    (0): Linear(in_features=1, out_features=64, bias=True)
    (1): BatchNorm1d(64, eps=1e-05, momentum=0.1, affine=True, track_running_stats=True)
    (2): ReLU()
  )
  (classifier): Sequential(
    (0): Dropout(p=0.3, inplace=False)
    (1): Linear(in_features=128, out_features=1, bias=True)
  )
)
Num of Parameters: 1.449473M
Large gradient norm (29.86) at batch 1, but proceeding...
Large gradient norm (28.39) at batch 2, but proceeding...
NaN/Inf gradients detected at batch 3, zeroed out...
Large gradient norm (24.32) at batch 4, but proceeding...
Large gradient norm (28.75) at batch 5, but proceeding...
Large gradient norm (27.32) at batch 6, but proceeding...
…
